…
026-04-03T12:01:48.135693Z","shell.execute_reply":"2026-04-03T12:01:48.1493Z"}},"outputs":[{"execution_count":60,"output_type":"execute_result","data":{"text/plain":"Gemma4ForConditionalGeneration(\n  (model): Gemma4Model(\n    (language_model): Gemma4TextModel(\n      (embed_tokens): Gemma4TextScaledWordEmbedding(262144, 1536, padding_idx=0)\n      (layers): ModuleList(\n        (0-3): 4 x Gemma4TextDecoderLayer(\n          (self_attn): Gemma4TextAttention(\n            (q_norm): Gemma4RMSNorm()\n            (k_norm): Gemma4RMSNorm()\n            (v_norm): Gemma4RMSNorm()\n            (k_proj): Linear(in_features=1536, out_features=256, bias=False)\n            (q_proj): Linear(in_features=1536, out_features=2048, bias=False)\n            (v_proj): Linear(in_features=1536, out_features=256, bias=False)\n            (o_proj): Linear(in_features=2048, out_features=1536, bias=False)\n          )\n          (mlp): Gemma4TextMLP(\n            (gate_proj): Linear(in_features=1536, out_features=6144, bias=False)\n            (up_proj): Linear(in_features=1536, out_features=6144, bias=False)\n            (down_proj): Linear(in_features=6144, out_features=1536, bias=False)\n            (act_fn): GELUTanh()\n          )\n          (input_layernorm): Gemma4RMSNorm()\n          (post_attention_layernorm): Gemma4RMSNorm()\n          (pre_feedforward_layernorm): Gemma4RMSNorm()\n          (post_feedforward_layernorm): Gemma4RMSNorm()\n          (act_fn): GELUTanh()\n          (per_layer_input_gate): Linear(in_features=1536, out_features=256, bias=False)\n          (per_layer_projection): Linear(in_features=256, out_features=1536, bias=False)\n          (post_per_layer_input_norm): Gemma4RMSNorm()\n        )\n        (4): Gemma4TextDecoderLayer(\n          (self_attn): Gemma4TextAttention(\n            (q_norm): Gemma4RMSNorm()\n            (k_norm): Gemma4RMSNorm()\n            (v_norm): Gemma4RMSNorm()\n            (k_proj): Linear(in_features=1536, out_features=512, bias=False)\n            (q_proj): Linear(in_features=1536, out_features=4096, bias=False)\n            (v_proj): Linear(in_features=1536, out_features=512, bias=False)\n            (o_proj): Linear(in_features=4096, out_features=1536, bias=False)\n          )\n          (mlp): Gemma4TextMLP(\n            (gate_proj): Linear(in_features=1536, out_features=6144, bias=False)\n            (up_proj): Linear(in_features=1536, out_features=6144, bias=False)\n            (down_proj): Linear(in_features=6144, out_features=1536, bias=False)\n            (act_fn): GELUTanh()\n          )\n          (input_layernorm): Gemma4RMSNorm()\n          (post_attention_layernorm): Gemma4RMSNorm()\n          (pre_feedforward_layernorm): Gemma4RMSNorm()\n          (post_feedforward_layernorm): Gemma4RMSNorm()\n          (act_fn): GELUTanh()\n          (per_layer_input_gate): Linear(in_features=1536, out_features=256, bias=False)\n          (per_layer_projection): Linear(in_features=256, out_features=1536, bias=False)\n          (post_per_layer_input_norm): Gemma4RMSNorm()\n        )\n        (5-8): 4 x Gemma4TextDecoderLayer(\n          (self_attn): Gemma4TextAttention(\n            (q_norm): Gemma4RMSNorm()\n            (k_norm): Gemma4RMSNorm()\n            (v_norm): Gemma4RMSNorm()\n            (k_proj): Linear(in_features=1536, out_features=256, bias=False)\n            (q_proj): Linear(in_features=1536, out_features=2048, bias=False)\n            (v_proj): Linear(in_features=1536, out_features=256, bias=False)\n            (o_proj): Linear(in_features=2048, out_features=1536, bias=False)\n          )\n          (mlp): Gemma4TextMLP(\n            (gate_proj): Linear(in_features=1536, out_features=6144, bias=False)\n            (up_proj): Linear(in_features=1536, out_features=6144, bias=False)\n            (down_proj): Linear(in_features=6144, out_features=1536, bias=False)\n            (act_fn): GELUTanh()\n          )\n          (input_layernorm): Gemma4RMSNorm()\n          (post_attention_layernorm): Gemma4RMSNorm()\n          (pre_feedforward_layernorm): Gemma4RMSNorm()\n          (post_feedforward_layernorm): Gemma4RMSNorm()\n          (act_fn): GELUTanh()\n          (per_layer_input_gate): Linear(in_features=1536, out_features=256, bias=False)\n          (per_layer_projection): Linear(in_features=256, out_features=1536, bias=False)\n          (post_per_layer_input_norm): Gemma4RMSNorm()\n        )\n        (9): Gemma4TextDecoderLayer(\n          (self_attn): Gemma4TextAttention(\n            (q_norm): Gemma4RMSNorm()\n            (k_norm): Gemma4RMSNorm()\n            (v_norm): Gemma4RMSNorm()\n            (k_proj): Linear(in_features=1536, out_features=512, bias=False)\n            (q_proj): Linear(in_features=1536, out_features=4096, bias=False)\n            (v_proj): Linear(in_features=1536, out_features=512, bias=False)\n            (o_proj): Linear(in_features=4096, out_features=1536, bias=False)\n          )\n          (mlp): Gemma4TextMLP(\n            (gate_proj): Linear(in_features=1536, out_features=6144, bias=False)\n            (up_proj): Linear(in_features=1536, out_features=6144, bias=False)\n            (down_proj): Linear(in_features=6144, out_features=1536, bias=False)\n            (act_fn): GELUTanh()\n          )\n          (input_layernorm): Gemma4RMSNorm()\n          (post_attention_layernorm): Gemma4RMSNorm()\n          (pre_feedforward_layernorm): Gemma4RMSNorm()\n          (post_feedforward_layernorm): Gemma4RMSNorm()\n          (act_fn): GELUTanh()\n          (per_layer_input_gate): Linear(in_features=1536, out_features=256, bias=False)\n          (per_layer_projection): Linear(in_features=256, out_features=1536, bias=False)\n          (post_per_layer_input_norm): Gemma4RMSNorm()\n        )\n        (10-13): 4 x Gemma4TextDecoderLayer(\n          (self_attn): Gemma4TextAttention(\n            (q_norm): Gemma4RMSNorm()\n            (k_norm): Gemma4RMSNorm()\n            (v_norm): Gemma4RMSNorm()\n            (k_proj): Linear(in_features=1536, out_features=256, bias=False)\n            (q_proj): Linear(in_features=1536, out_features=2048, bias=False)\n            (v_proj): Linear(in_features=1536, out_features=256, bias=False)\n            (o_proj): Linear(in_features=2048, out_features=1536, bias=False)\n          )\n          (mlp): Gemma4TextMLP(\n            (gate_proj): Linear(in_features=1536, out_features=6144, bias=False)\n            (up_proj): Linear(in_features=1536, out_features=6144, bias=False)\n            (down_proj): Linear(in_features=6144, out_features=1536, bias=False)\n            (act_fn): GELUTanh()\n          )\n          (input_layernorm): Gemma4RMSNorm()\n          (post_attention_layernorm): Gemma4RMSNorm()\n          (pre_feedforward_layernorm): Gemma4RMSNorm()\n          (post_feedforward_layernorm): Gemma4RMSNorm()\n          (act_fn): GELUTanh()\n          (per_layer_input_gate): Linear(in_features=1536, out_features=256, bias=False)\n          (per_layer_projection): Linear(in_features=256, out_features=1536, bias=False)\n          (post_per_layer_input_norm): Gemma4RMSNorm()\n        )\n        (14): Gemma4TextDecoderLayer(\n          (self_attn): Gemma4TextAttention(\n            (q_norm): Gemma4RMSNorm()\n            (k_norm): Gemma4RMSNorm()\n            (v_norm): Gemma4RMSNorm()\n            (k_proj): Linear(in_features=1536, out_features=512, bias=False)\n            (q_proj): Linear(in_features=1536, out_features=4096, bias=False)\n            (v_proj): Linear(in_features=1536, out_features=512, bias=False)\n            (o_proj): Linear(in_features=4096, out_features=1536, bias=False)\n          )\n          (mlp): Gemma4TextMLP(\n            (gate_proj): Linear(in_features=1536, out_features=6144, bias=False)\n            (up_proj): Linear(in_features=1536, out_features=6144, bias=False)\n            (down_proj): Linear(in_features=6144, out_features=1536, bias=False)\n            (act_fn): GELUTanh()\n          )\n          (input_layernorm): Gemma4RMSNorm()\n          (post_attention_layernorm): Gemma4RMSNorm()\n          (pre_feedforward_layernorm): Gemma4RMSNorm()\n          (post_feedforward_layernorm): Gemma4RMSNorm()\n          (act_fn): GELUTanh()\n          (per_layer_input_gate): Linear(in_features=1536, out_features=256, bias=False)\n          (per_layer_projection): Linear(in_features=256, out_features=1536, bias=False)\n          (post_per_layer_input_norm): Gemma4RMSNorm()\n        )\n        (15-18): 4 x Gemma4TextDecoderLayer(\n          (self_attn): Gemma4TextAttention(\n            (q_norm): Gemma4RMSNorm()\n            (k_norm): Gemma4RMSNorm()\n            (v_norm): Gemma4RMSNorm()\n            (k_proj): Linear(in_features=1536, out_features=256, bias=False)\n            (q_proj): Linear(in_features=1536, out_features=2048, bias=False)\n            (v_proj): Linear(in_features=1536, out_features=256, bias=False)\n            (o_proj): Linear(in_features=2048, out_features=1536, bias=False)\n          )\n          (mlp): Gemma4TextMLP(\n            (gate_proj): Linear(in_features=1536, out_features=12288, bias=False)\n            (up_proj): Linear(in_features=1536, out_features=12288, bias=False)\n            (down_proj): Linear(in_features=12288, out_features=1536, bias=False)\n            (act_fn): GELUTanh()\n          )\n          (input_layernorm): Gemma4RMSNorm()\n          (post_attention_layernorm): Gemma4RMSNorm()\n          (pre_feedforward_layernorm): Gemma4RMSNorm()\n          (post_feedforward_layernorm): Gemma4RMSNorm()\n          (act_fn): GELUTanh()\n          (per_layer_input_gate): Linear(in_features=1536, out_features=256, bias=False)\n          (per_layer_projection): Linear(in_features=256, out_features=1536, bias=False)\n          (post_per_layer_input_norm): Gemma4RMSNorm()\n        )\n        (19): Gemma4TextDecoderLayer(\n          (self_attn): Gemma4TextAttention(\n            (q_norm): Gemma4RMSNorm()\n            (k_norm): Gemma4RMSNorm()\n            (v_norm): Gemma4RMSNorm()\n            (k_proj): Linear(in_features=1536, out_features=512, bias=False)\n            (q_proj): Linear(in_features=1536, out_features=4096, bias=False)\n            (v_proj): Linear(in_features=1536, out_features=512, bias=False)\n            (o_proj): Linear(in_features=4096, out_features=1536, bias=False)\n          )\n          (mlp): Gemma4TextMLP(\n            (gate_proj): Linear(in_features=1536, out_features=12288, bias=False)\n            (up_proj): Linear(in_features=1536, out_features=12288, bias=False)\n            (down_proj): Linear(in_features=12288, out_features=1536, bias=False)\n            (act_fn): GELUTanh()\n          )\n          (input_layernorm): Gemma4RMSNorm()\n          (post_attention_layernorm): Gemma4RMSNorm()\n          (pre_feedforward_layernorm): Gemma4RMSNorm()\n          (post_feedforward_layernorm): Gemma4RMSNorm()\n          (act_fn): GELUTanh()\n          (per_layer_input_gate): Linear(in_features=1536, out_features=256, bias=False)\n          (per_layer_projection): Linear(in_features=256, out_features=1536, bias=False)\n          (post_per_layer_input_norm): Gemma4RMSNorm()\n        )\n        (20-23): 4 x Gemma4TextDecoderLayer(\n          (self_attn): Gemma4TextAttention(\n            (q_norm): Gemma4RMSNorm()\n            (k_norm): Gemma4RMSNorm()\n            (v_norm): Gemma4RMSNorm()\n            (k_proj): Linear(in_features=1536, out_features=256, bias=False)\n            (q_proj): Linear(in_features=1536, out_features=2048, bias=False)\n            (v_proj): Linear(in_features=1536, out_features=256, bias=False)\n            (o_proj): Linear(in_features=2048, out_features=1536, bias=False)\n          )\n          (mlp): Gemma4TextMLP(\n            (gate_proj): Linear(in_features=1536, out_features=12288, bias=False)\n            (up_proj): Linear(in_features=1536, out_features=12288, bias=False)\n            (down_proj): Linear(in_features=12288, out_features=1536, bias=False)\n            (act_fn): GELUTanh()\n          )\n          (input_layernorm): Gemma4RMSNorm()\n          (post_attention_layernorm): Gemma4RMSNorm()\n          (pre_feedforward_layernorm): Gemma4RMSNorm()\n          (post_feedforward_layernorm): Gemma4RMSNorm()\n          (act_fn): GELUTanh()\n          (per_layer_input_gate): Linear(in_features=1536, out_features=256, bias=False)\n          (per_layer_projection): Linear(in_features=256, out_features=1536, bias=False)\n          (post_per_layer_input_norm): Gemma4RMSNorm()\n        )\n        (24): Gemma4TextDecoderLayer(\n          (self_attn): Gemma4TextAttention(\n            (q_norm): Gemma4RMSNorm()\n            (k_norm): Gemma4RMSNorm()\n            (v_norm): Gemma4RMSNorm()\n            (k_proj): Linear(in_features=1536, out_features=512, bias=False)\n            (q_proj): Linear(in_features=1536, out_features=4096, bias=False)\n            (v_proj): Linear(in_features=1536, out_features=512, bias=False)\n            (o_proj): Linear(in_features=4096, out_features=1536, bias=False)\n          )\n          (mlp): Gemma4TextMLP(\n            (gate_proj): Linear(in_features=1536, out_features=12288, bias=False)\n            (up_proj): Linear(in_features=1536, out_features=12288, bias=False)\n            (down_proj): Linear(in_features=12288, out_features=1536, bias=False)\n            (act_fn): GELUTanh()\n          )\n          (input_layernorm): Gemma4RMSNorm()\n          (post_attention_layernorm): Gemma4RMSNorm()\n          (pre_feedforward_layernorm): Gemma4RMSNorm()\n          (post_feedforward_layernorm): Gemma4RMSNorm()\n          (act_fn): GELUTanh()\n          (per_layer_input_gate): Linear(in_features=1536, out_features=256, bias=False)\n          (per_layer_projection): Linear(in_features=256, out_features=1536, bias=False)\n          (post_per_layer_input_norm): Gemma4RMSNorm()\n        )\n        (25-28): 4 x Gemma4TextDecoderLayer(\n          (self_attn): Gemma4TextAttention(\n            (q_norm): Gemma4RMSNorm()\n            (k_norm): Gemma4RMSNorm()\n            (v_norm): Gemma4RMSNorm()\n            (k_proj): Linear(in_features=1536, out_features=256, bias=False)\n            (q_proj): Linear(in_features=1536, out_features=2048, bias=False)\n            (v_proj): Linear(in_features=1536, out_features=256, bias=False)\n            (o_proj): Linear(in_features=2048, out_features=1536, bias=False)\n          )\n          (mlp): Gemma4TextMLP(\n            (gate_proj): Linear(in_features=1536, out_features=12288, bias=False)\n            (up_proj): Linear(in_features=1536, out_features=12288, bias=False)\n            (down_proj): Linear(in_features=12288, out_features=1536, bias=False)\n            (act_fn): GELUTanh()\n          )\n          (input_layernorm): Gemma4RMSNorm()\n          (post_attention_layernorm): Gemma4RMSNorm()\n          (pre_feedforward_layernorm): Gemma4RMSNorm()\n          (post_feedforward_layernorm): Gemma4RMSNorm()\n          (act_fn): GELUTanh()\n          (per_layer_input_gate): Linear(in_features=1536, out_features=256, bias=False)\n          (per_layer_projection): Linear(in_features=256, out_features=1536, bias=False)\n          (post_per_layer_input_norm): Gemma4RMSNorm()\n        )\n        (29): Gemma4TextDecoderLayer(\n          (self_attn): Gemma4TextAttention(\n            (q_norm): Gemma4RMSNorm()\n            (k_norm): Gemma4RMSNorm()\n            (v_norm): Gemma4RMSNorm()\n            (k_proj): Linear(in_features=1536, out_features=512, bias=False)\n            (q_proj): Linear(in_features=1536, out_features=4096, bias=False)\n            (v_proj): Linear(in_features=1536, out_features=512, bias=False)\n            (o_proj): Linear(in_features=4096, out_features=1536, bias=False)\n          )\n          (mlp): Gemma4TextMLP(\n            (gate_proj): Linear(in_features=1536, out_features=12288, bias=False)\n            (up_proj): Linear(in_features=1536, out_features=12288, bias=False)\n            (down_proj): Linear(in_features=12288, out_features=1536, bias=False)\n            (act_fn): GELUTanh()\n          )\n          (input_layernorm): Gemma4RMSNorm()\n          (post_attention_layernorm): Gemma4RMSNorm()\n          (pre_feedforward_layernorm): Gemma4RMSNorm()\n          (post_feedforward_layernorm): Gemma4RMSNorm()\n          (act_fn): GELUTanh()\n          (per_layer_input_gate): Linear(in_features=1536, out_features=256, bias=False)\n          (per_layer_projection): Linear(in_features=256, out_features=1536, bias=False)\n          (post_per_layer_input_norm): Gemma4RMSNorm()\n        )\n        (30-33): 4 x Gemma4TextDecoderLayer(\n          (self_attn): Gemma4TextAttention(\n            (q_norm): Gemma4RMSNorm()\n            (k_norm): Gemma4RMSNorm()\n            (v_norm): Gemma4RMSNorm()\n            (k_proj): Linear(in_features=1536, out_features=256, bias=False)\n            (q_proj): Linear(in_features=1536, out_features=2048, bias=False)\n            (v_proj): Linear(in_features=1536, out_features=256, bias=False)\n            (o_proj): Linear(in_features=2048, out_features=1536, bias=False)\n          )\n          (mlp): Gemma4TextMLP(\n            (gate_proj): Linear(in_features=1536, out_features=12288, bias=False)\n            (up_proj): Linear(in_features=1536, out_features=12288, bias=False)\n            (down_proj): Linear(in_features=12288, out_features=1536, bias=False)\n            (act_fn): GELUTanh()\n          )\n          (input_layernorm): Gemma4RMSNorm()\n          (post_attention_layernorm): Gemma4RMSNorm()\n          (pre_feedforward_layernorm): Gemma4RMSNorm()\n          (post_feedforward_layernorm): Gemma4RMSNorm()\n          (act_fn): GELUTanh()\n          (per_layer_input_gate): Linear(in_features=1536, out_features=256, bias=False)\n          (per_layer_projection): Linear(in_features=256, out_features=1536, bias=False)\n          (post_per_layer_input_norm): Gemma4RMSNorm()\n        )\n        (34): Gemma4TextDecoderLayer(\n          (self_attn): Gemma4TextAttention(\n            (q_norm): Gemma4RMSNorm()\n            (k_norm): Gemma4RMSNorm()\n            (v_norm): Gemma4RMSNorm()\n            (k_proj): Linear(in_features=1536, out_features=512, bias=False)\n            (q_proj): Linear(in_features=1536, out_features=4096, bias=False)\n            (v_proj): Linear(in_features=1536, out_features=512, bias=False)\n            (o_proj): Linear(in_features=4096, out_features=1536, bias=False)\n          )\n          (mlp): Gemma4TextMLP(\n            (gate_proj): Linear(in_features=1536, out_features=12288, bias=False)\n            (up_proj): Linear(in_features=1536, out_features=12288, bias=False)\n            (down_proj): Linear(in_features=12288, out_features=1536, bias=False)\n            (act_fn): GELUTanh()\n          )\n          (input_layernorm): Gemma4RMSNorm()\n          (post_attention_layernorm): Gemma4RMSNorm()\n          (pre_feedforward_layernorm): Gemma4RMSNorm()\n          (post_feedforward_layernorm): Gemma4RMSNorm()\n          (act_fn): GELUTanh()\n          (per_layer_input_gate): Linear(in_features=1536, out_features=256, bias=False)\n          (per_layer_projection): Linear(in_features=256, out_features=1536, bias=False)\n          (post_per_layer_input_norm): Gemma4RMSNorm()\n        )\n      )\n      (norm): Gemma4RMSNorm()\n      (rotary_emb): Gemma4TextRotaryEmbedding()\n      (embed_tokens_per_layer): Gemma4TextScaledWordEmbedding(262144, 8960, padding_idx=0)\n      (per_layer_model_projection): Linear(in_features=1536, out_features=8960, bias=False)\n      (per_layer_projection_norm): Gemma4RMSNorm()\n    )\n    (vision_tower): Gemma4VisionModel(\n      (patch_embedder): Gemma4VisionPatchEmbedder(\n        (input_proj): Linear(in_features=768, out_features=768, bias=False)\n      )\n      (encoder): Gemma4VisionEncoder(\n        (rotary_emb): Gemma4VisionRotaryEmbedding()\n        (layers): ModuleList(\n          (0-15): 16 x Gemma4VisionEncoderLayer(\n            (self_attn): Gemma4VisionAttention(\n              (q_proj): Gemma4ClippableLinear(\n                (linear): Linear(in_features=768, out_features=768, bias=False)\n              )\n              (k_proj): Gemma4ClippableLinear(\n                (linear): Linear(in_features=768, out_features=768, bias=False)\n              )\n              (v_proj): Gemma4ClippableLinear(\n                (linear): Linear(in_features=768, out_features=768, bias=False)\n              )\n              (o_proj): Gemma4ClippableLinear(\n                (linear): Linear(in_features=768, out_features=768, bias=False)\n              )\n              (q_norm): Gemma4RMSNorm()\n              (k_norm): Gemma4RMSNorm()\n              (v_norm): Gemma4RMSNorm()\n            )\n            (mlp): Gemma4VisionMLP(\n              (gate_proj): Gemma4ClippableLinear(\n                (linear): Linear(in_features=768, out_features=3072, bias=False)\n              )\n              (up_proj): Gemma4ClippableLinear(\n                (linear): Linear(in_features=768, out_features=3072, bias=False)\n              )\n              (down_proj): Gemma4ClippableLinear(\n                (linear): Linear(in_features=3072, out_features=768, bias=False)\n              )\n              (act_fn): GELUTanh()\n            )\n            (input_layernorm): Gemma4RMSNorm()\n            (post_attention_layernorm): Gemma4RMSNorm()\n            (pre_feedforward_layernorm): Gemma4RMSNorm()\n            (post_feedforward_layernorm): Gemma4RMSNorm()\n          )\n        )\n      )\n      (pooler): Gemma4VisionPooler()\n    )\n    (embed_vision): Gemma4MultimodalEmbedder(\n      (embedding_projection): Linear(in_features=768, out_features=1536, bias=False)\n      (embedding_pre_projection_norm): Gemma4RMSNorm()\n    )\n    (audio_tower): Gemma4AudioModel(\n      (subsample_conv_projection): Gemma4AudioSubSampleConvProjection(\n        (layer0): Gemma4AudioSubSampleConvProjectionLayer(\n          (conv): Conv2d(1, 128, kernel_size=(3, 3), stride=(2, 2), padding=(1, 1), bias=False)\n          (norm): LayerNorm((128,), eps=1e-06, elementwise_affine=True)\n          (act): ReLU()\n        )\n        (layer1): Gemma4AudioSubSampleConvProjectionLayer(\n          (conv): Conv2d(128, 32, kernel_size=(3, 3), stride=(2, 2), padding=(1, 1), bias=False)\n          (norm): LayerNorm((32,), eps=1e-06, elementwise_affine=True)\n          (act): ReLU()\n        )\n        (input_proj_linear): Linear(in_features=1024, out_features=1024, bias=False)\n      )\n      (rel_pos_enc): Gemma4AudioRelPositionalEncoding()\n      (layers): ModuleList(\n        (0-11): 12 x Gemma4AudioLayer(\n          (feed_forward1): Gemma4AudioFeedForward(\n            (ffw_layer_1): Gemma4ClippableLinear(\n              (linear): Linear(in_features=1024, out_features=4096, bias=False)\n            )\n            (ffw_layer_2): Gemma4ClippableLinear(\n              (linear): Linear(in_features=4096, out_features=1024, bias=False)\n            )\n            (pre_layer_norm): Gemma4RMSNorm()\n            (post_layer_norm): Gemma4RMSNorm()\n            (act_fn): SiLUActivation()\n          )\n          (feed_forward2): Gemma4AudioFeedForward(\n            (ffw_layer_1): Gemma4ClippableLinear(\n              (linear): Linear(in_features=1024, out_features=4096, bias=False)\n            )\n            (ffw_layer_2): Gemma4ClippableLinear(\n              (linear): Linear(in_features=4096, out_features=1024, bias=False)\n            )\n            (pre_layer_norm): Gemma4RMSNorm()\n            (post_layer_norm): Gemma4RMSNorm()\n            (act_fn): SiLUActivation()\n          )\n          (self_attn): Gemma4AudioAttention(\n            (q_proj): Gemma4ClippableLinear(\n              (linear): Linear(in_features=1024, out_features=1024, bias=False)\n            )\n            (k_proj): Gemma4ClippableLinear(\n              (linear): Linear(in_features=1024, out_features=1024, bias=False)\n            )\n            (v_proj): Gemma4ClippableLinear(\n              (linear): Linear(in_features=1024, out_features=1024, bias=False)\n            )\n            (post): Gemma4ClippableLinear(\n              (linear): Linear(in_features=1024, out_features=1024, bias=False)\n            )\n            (relative_k_proj): Linear(in_features=1024, out_features=1024, bias=False)\n          )\n          (lconv1d): Gemma4AudioLightConv1d(\n            (linear_start): Gemma4ClippableLinear(\n              (linear): Linear(in_features=1024, out_features=2048, bias=False)\n            )\n            (linear_end): Gemma4ClippableLinear(\n              (linear): Linear(in_features=1024, out_features=1024, bias=False)\n            )\n            (depthwise_conv1d): Gemma4AudioCausalConv1d(1024, 1024, kernel_size=(5,), stride=(1,), groups=1024, bias=False)\n            (pre_layer_norm): Gemma4RMSNorm()\n            (conv_norm): Gemma4RMSNorm()\n            (act_fn): SiLUActivation()\n          )\n          (norm_pre_attn): Gemma4RMSNorm()\n          (norm_post_attn): Gemma4RMSNorm()\n          (norm_out): Gemma4RMSNorm()\n        )\n      )\n      (output_proj): Linear(in_features=1024, out_features=1536, bias=True)\n    )\n    (embed_audio): Gemma4MultimodalEmbedder(\n      (embedding_projection): Linear(in_features=1536, out_features=1536, bias=False)\n      (embedding_pre_projection_norm): Gemma4RMSNorm()\n    )\n  )\n  (lm_head): Linear(in_features=1536, out_features=262144, bias=False)\n)"},"metadata":{}}],"execution_count":60},{"cell_type":"code","source":"POCKET_INSTRUCTOR_PROMPT = \"\"\"\nYou are Pocket Instructor — a calm, patient, step-by-step tutor.\nYour job is to help the student understand, not just give answers.\n\nRules:\n1. Always start with a brief, friendly explanation of the concept.\n2. Break the solution into cl
…
